Coletor/interface/model_no_quant.tflite (tflite, 3072 bytes, 8 tensors)

dense_3/bias f4 [4]
-0.10807618 -0.0307571 -0.07884309 -0.1485412
00000000: 0b57 ddbd 50f6 fbbc 7c78 a1bd 2f1b 18be

dense_2/bias f4 [10]
-0.12158018 -0.12173743 -0.10283923 0.15020537 -0.073191315 -0.1209985 0.20333555 0.17527778
0.008799579 -0.12551196
00000000: 08ff f8bd 7951 f9bd 609d d2bd 70cf 193e
00000010: 54e5 95bd 10ce f7bd 3237 503e 057c 333e
00000020: 1c2c 103c 3586 00be

dense_1/bias f4 [2]
-0.11010446 -0.088349074
00000000: 727e e1bd 5cf0 b4bd

dense/bias f4 [10]
0.10430693 -0.021656811 -0.065325245 0.1463308 -0.07395118 0.09458505 -0.101378195 -0.07672691
0.10101494 -0.092846654
00000000: df9e d53d a069 b1bc 3ec9 85bd bed7 153e
00000010: b773 97bd cfb5 c13d 5f9f cfbd 0023 9dbd
00000020: ece0 ce3d 6326 bebd

sequential/dense/MatMul f4 [10, 4]
0.17834863 -0.41712674 -0.08136888 0.2518172 0.5490228 0.05182275 0.45408723 0.53639203
0.58078283 -0.40692443 -0.042708486 0.4574901 0.39053032 -0.3828001 -0.011359698 0.7431993
0.27084717 0.045687925 -0.013336485 -0.13615924 0.5860138 -0.36783114 -0.20342273 0.73103553
-0.6205999 0.40960053 0.33702525 -0.42272416 -0.506512 -0.6734467 -0.4132788 0.3736258
0.087462835 0.59193146 -0.49834797 0.13814676 0.15057063 0.30789745 0.09151549 0.37453404
00000000: 06a1 363e a391 d5be baa4 a6bd 2fee 803e
00000010: c28c 0c3f 1844 543d 1f7e e83e fd50 093f
00000020: 2fae 143f 6658 d0be 18ef 2ebd 243c ea3e
00000030: 97f3 c73e 60fe c3be 071e 3abc 4f42 3e3f
00000040: 7bac 8a3e 4323 3b3d 4681 5abc 546d 0bbe
00000050: 0005 163f 5d54 bcbe 0c4e 50be 2525 3b3f
00000060: a3df 1ebf 29b7 d13e 938e ac3e 4d6f d8be
00000070: c5aa 01bf 0167 2cbf 4799 d3be e14b bf3e
00000080: b71f b33d d288 173f 7727 ffbe 5876 0d3e
00000090: 302f 1a3e bca4 9d3e 796c bb3d edc2 bf3e

sequential/dense_1/MatMul f4 [2, 10]
-0.035490762 -0.6199199 -0.29069754 -0.4903508 -0.53493035 -0.11372219 0.42185327 -0.47732532
-0.26539522 0.31080177 -0.19112627 0.20473102 0.19584593 0.004437147 0.5536568 -0.4819645
0.33084598 0.57478255 -0.34984335 0.5922381
00000000: c35e 11bd 12b3 1ebf 4fd6 94be 430f fbbe
00000010: 32f1 08bf 2ee7 e8bd 27fd d73e fc63 f4be
00000020: e2e1 87be 6921 9f3e 9bb6 43be 02a5 513e
00000030: d68b 483e 7d65 913b 74bc 0d3f 0dc4 f6be
00000040: a564 a93e f324 133f ab1e b3be eb9c 173f

sequential/dense_2/MatMul f4 [10, 2]
-0.40806347 0.06295962 -0.065992326 0.439997 0.14158006 0.25740427 0.046594515 -0.013262667
-0.39203912 -0.13172947 0.35340804 0.20043336 0.06853869 0.3962782 0.32678407 0.81651825
0.06879807 0.12583055 0.5509891 -0.4488361
00000000: b2ed d0be f9f0 803d fc26 87bd 4947 e13e
00000010: 5dfa 103e 7eca 833e e4d9 3e3d a84b 59bc
00000020: 5ab9 c8be 17e4 06be e6f1 b43e 673e 4d3e
00000030: 035e 8c3d fae4 ca3e 3e50 a73e 5707 513f
00000040: 01e6 8c3d b9d9 003e 9f0d 0d3f d8cd e5be

sequential/dense_3/MatMul f4 [4, 10]
0.05626591 0.2658904 0.48722893 -0.42095822 0.15120178 0.41521862 0.27660722 0.08059319
-0.7093448 -0.38916898 -0.45028636 0.0074334154 -0.32370445 0.0679368 0.35013053 -0.332636
0.28374845 -0.027563922 0.3027271 0.30578285 0.48630774 -0.042068206 0.2653873 -0.097897686
-0.031857733 0.50777084 0.40283206 -0.14469546 -0.6588262 -0.47694582 0.364911 0.1577027
0.022397963 0.03896608 -0.0728982 0.4092741 -0.6079112 -0.19969384 0.3001175 0.18650356
00000000: 1577 663d c922 883e 1276 f93e d687 d7be
00000010: a4d4 1a3e 8997 d43e 769f 8d3e 0b0e a53d
00000020: 9f97 35bf 2841 c7be ef8b e6be 0294 f33b
00000030: 97bc a5be 7322 8b3d 4f44 b33e 444f aabe
00000040: 7a47 913e bccd e1bc 0cff 9a3e 928f 9c3e
00000050: 54fd f83e b64f 2cbd d8e0 873e 957e c8bd
00000060: 417d 02bd 45fd 013f 0140 ce3e 0c2b 14be
00000070: d5a8 28bf 3e32 f4be 9dd5 ba3e d17c 213e
00000080: ef7b b73c e59a 1f3d a74b 95bd 608c d13e
00000090: 12a0 1bbf 8b7c 4cbe 00a9 993e cafa 3e3e
